results/PSO_f20_100D_w0.4_c11_c21.npz (npz, 928010 bytes, 3 tensors)

best_candidate f8 [19, 100]
000000 f6 55 66 60 53 9c 53 40 dc c5 3f 6b 52 1b 31 c0
       78.44258890145997 -17.1067263632484
000010 52 50 99 2c fc f1 04 c0 9c 4d 10 57 0e 2e 31 c0
       -2.6181567653930324 -17.179906312446846
000020 30 11 78 5b fc b0 20 40 44 a4 75 eb 14 3a 50 c0
       8.345675333410867 -64.90752684105342
000030 11 c6 0a 36 6b 0e 5a 40 9d cd 12 e7 a2 c1 57 40
       104.22529364635581 95.0255677875161
000040 b7 19 41 46 f0 83 2c c0 12 27 44 c9 6a 38 24 c0
       -14.257692523428757 -10.110189714021121
000050 20 67 b9 43 fc 6e 49 40 8d 5a 44 35 88 62 42 c0
       50.86707350304482 -36.769781740547025
000060 2e e7 e1 89 08 82 51 40 a4 a1 9a 4f fd f4 3e c0
       70.03177115498394 -30.95699021840268
000070 d0 40 e8 f6 ae 9d 4f 40 0a d8 fb 2c 19 78 5d 40
       63.23190199223029 117.87653660387164
000080 53 d4 a7 db e0 97 4b c0 5e 51 aa 3e d6 28 13 c0
       -55.18654962248606 -4.789879779000641
000090 27 f6 43 9e a4 64 5b 40 e3 88 f5 5e f4 99 53 c0
       109.57254749905461 -78.40554021814346
0000a0 95 7e df 1a 11 64 1d 40 2e 00 47 11 26 e3 42 40
       7.3477215002927965 37.77459922758895
0000b0 d5 c8 a0 a9 de 07 47 40 ef f0 f1 56 b8 55 53 c0
       46.0614826235848 -77.33937619807305
0000c0 9f 0a 92 c8 63 ee 51 c0 29 86 3b 7b f9 90 35 40
       -71.7248403001963 21.566306783706896
0000d0 4f 04 80 0d 0f a1 20 40 28 20 2c 6f a3 43 5d c0
       8.31456796825128 -117.05685023602621
0000e0 e5 18 3e de 79 51 50 40 1e 96 7d 63 d1 c0 55 c0
       65.27306324066338 -87.01278006805703
0000f0 e1 26 55 36 e1 77 31 40 cb c8 b7 e7 4c bd 44 40
       17.468280216015845 41.47890945886464
000100 44 d7 cc 28 a6 16 49 c0 c7 35 ae b1 ec a7 48 c0
       -50.1769457817268 -49.311910829604635
000110 68 d8 78 62 5d 53 4b c0 fe 19 d8 c9 78 20 77 bf
       -54.651287373548996 -0.005646201925179726
000120 94 2c 76 ea cb a5 43 c0 6a 34 84 d4 ad 29 3a c0
       -39.29528551836225 -26.16280868747382
000130 c1 d6 c7 76 74 73 43 40 59 cc d2 d6 bc 82 3b 40
       38.9019916988159 27.51069395681802
000140 c2 1a 80 c0 95 e9 50 c0 31 16 e4 2b c8 f3 2d c0
       -67.64976513395507 -14.976136561958898
000150 26 4f 53 d0 75 fc 3b 40 45 7b 23 2a 10 62 4f c0
       27.986172695483354 -62.76611830456253
000160 d8 1f 19 c7 91 4f 29 40 68 c9 15 92 ed 12 50 40
       12.65540907079405 64.29575016143428
000170 57 e3 7d c0 b9 22 53 c0 ca 46 3b e6 3b 95 47 c0
       -76.54258739751582 -47.16589048284875
000180 8a 75 b7 ea 95 8b 12 40 f0 00 b0 b5 60 30 24 c0
       4.636314074943025 -10.094487836584875
000190 0a 0d 7a 1b e3 f8 33 c0 10 85 65 eb 17 88 4c c0
       -19.972215382859794 -57.06322996575375
0001a0 a1 2f 74 f6 6e 6a 50 c0 10 22 c0 cd 45 69 4c 40
       -65.66302262636465 56.82244274026391
0001b0 03 bc ad 0d a4 d2 43 c0 45 6b 18 13 f2 b5 4b 40
       -39.64563151343466 55.421450030253745
0001c0 a6 6c 03 a5 51 82 58 40 91 68 2b d1 c8 8b 51 c0
       98.03623318991103 -70.18413190116031
0001d0 ac 04 90 29 f7 88 58 c0 6c f9 a4 ec 63 1b 3e 40
       -98.14008559288294 30.106993475224428
0001e0 4e 8d 2e ad d0 52 58 40 3e 47 ed 87 1e e7 14 c0
       97.29398660226909 -5.225702403886144
0001f0 c6 2b 95 1f fc e2 56 c0 b0 2c 26 9b 0a 51 1e 40
       -91.54663838927726 7.579142021374693
000200 96 50 28 1a 53 a5 39 c0 8b 6b de 2b 49 f6 15 c0
       -25.64579928859947 -5.490513501596875
000210 10 e4 76 bf 1d ee 26 c0 62 61 20 c5 f0 9f 5b c0
       -11.465070708525701 -110.49907043611668
000220 07 b1 66 88 d3 d0 18 40 a9 f6 6e ac f7 53 50 40
       6.203931933658402 65.31199179493218
000230 00 c3 58 d4 cf da 1b c0 d5 67 08 f2 b2 70 4f c0
       -6.9636834315467695 -62.88046098146848
000240 47 a8 d6 ab 03 f7 20 c0 2c e5 b7 6c ad 83 37 c0
       -8.482449884370125 -23.514365000625887
000250 a5 eb 37 ec 35 80 34 c0 d2 e9 97 e1 a3 56 38 c0
       -20.500822795536482 -24.338438129032347
000260 74 11 88 5c a4 74 4d c0 60 5b 1a 79 b8 9a 3c 40
       -58.91126591342882 28.60437733548622
000270 f1 0f 3f 45 e0 c4 22 c0 a2 d8 d5 e4 46 04 59 40
       -9.38452354807666 100.06682701953335
000280 29 a3 60 bb a2 dd 50 c0 ef 58 c3 42 7c c4 43 40
       -67.46305736958733 39.53504213846633
000290 03 df 95 ef ac 65 40 c0 7c a8 03 38 80 9f 51 c0
       -32.79434008424689 -70.49220085484734
0002a0 77 32 5d 89 cc f9 28 40 c1 36 91 1a 99 e0 57 c0
       12.487888615252116 -95.50934471303027
0002b0 c3 73 9d 5a 61 3c 08 c0 58 8d 98 6b 1a 9d 40 c0
       -3.0294825629520985 -33.22736878346285
0002c0 87 de 4f b2 0b 56 17 40 4a 47 d2 74 65 f5 58 40
       5.8340289937256165 99.83431740317351
0002d0 52 9a f6 ee cc 8c 4f c0 f5 d1 0f 22 76 34 24 40
       -63.1000040725818 10.102463783675356
0002e0 72 d0 11 ca 96 d4 30 40 f7 bb a9 a5 09 e9 52 40
       16.83042586264532 75.64121381354913
0002f0 dd 66 6f fb 24 00 52 c0 85 0a 4e 6c 74 ae 26 40
       -72.00225721243937 11.340731987501622
000300 97 09 03 54 46 b9 5f 40 fe d3 fe a3 04 e4 35 40
       126.894917490927 21.890695810045138
000310 19 94 29 f5 ba 08 51 40 02 a8 69 50 a8 7a 42 c0
       68.13641099033738 -36.958261539068204
000320 0f 2a f8 b6 c6 11 23 c0 0d 2d d5 1d 47 ba 42 40
       -9.534719198029988 37.45529530438407
000330 54 ad 9b 8b 98 3b 35 40 77 27 a8 90 aa 48 4a 40
       21.232796407229515 52.56770523272183
000340 2d de e1 32 cc 97 51 c0 97 fb 4b 6a dd cb 55 40
       -70.3718383031598 87.1853891126651
000350 d1 9e 00 f6 56 0f f7 3f c9 5b 12 62 e3 1d 4b c0
       1.441245041796652 -54.23350168129361
000360 fc b2 4a 08 91 13 48 40 0e e3 d5 2e 08 a4 49 40
       48.15286353728695 51.281499723851184
000370 c7 92 fe 57 5c 32 55 40 25 71 40 45 2b 68 40 40
       84.78688621388129 32.813820511308485
000380 62 a9 ad 8d 09 ea 28 c0 d7 28 6f d9 06 c8 34 c0
       -12.457104136895115 -20.781354512823636
000390 5b 51 c8 d3 38 d1 34 c0 49 e5 0a 05 74 10 31 40
       -20.81727336540767 17.064270320091314
0003a0 9d 8e 0c 2e 9a 94 41 c0 29 00 21 45 ff f9 2d 40
       -35.16095519650592 14.988275680807492
0003b0 af 76 4c f7 4b ab 50 c0 0d 25 59 85 e1 7c 42 40
       -66.67651159732007 36.975632351424885
0003c0 82 30 0d 34 54 cb 4e c0 92 23 69 1a d4 3c 39 c0
       -61.58850718158739 -25.237611437481583
0003d0 ed f0 97 ef d3 3f 42 c0 1b 90 17 ed 86 cc fc 3f
       -36.49865527075767 1.7999333630950847
0003e0 59 0f f6 2f 26 47 4b c0 dc 67 4a a6 23 70 40 40
       -54.55585288538595 32.876087938624295
0003f0 5f c2 6b 51 43 68 3b c0 80 76 c9 0f 16 70 50 c0
       -27.407277191933073 -65.75134653734312
000400 79 da fd 7e 1f e3 3c 40 62 16 5b 52 c6 e3 30 c0
       28.88719934175103 -16.889744899023192
000410 77 c1 b2 6e 02 29 32 c0 3d 70 53 ef 13 40 96 3f
       -18.16019336570886 0.021728812677665344
000420 97 a5 5e 21 69 e2 51 40 87 9b 01 3c 00 f6 52 c0
       71.5376666473661 -75.84376430661187
000430 83 38 b5 de 3d 80 2c 40 5a 75 8e a8 60 55 35 c0
       14.250472030278848 -21.333506140499004
000440 61 81 22 52 96 84 0d c0 68 08 96 1a f6 86 4b 40
       -3.6897398392467697 55.05438549352476
000450 89 ca d6 13 82 f9 54 c0 50 5e 47 30 03 65 51 c0
       -83.89856430030535 -69.57831961602756
000460 7e db 95 6b e8 5f 41 40 d7 f3 bf 2d ba 66 48 40
       34.74928040330177 48.80255672333413
000470 fe 2d c2 a8 5f 14 44 40 8b 1c c5 06 17 75 2c 40
       40.15916928750447 14.228691302834951
000480 17 79 e7 fa 60 c3 2a c0 28 85 b7 e4 0b 2c 4a c0
       -13.381599274402602 -52.34411295853562
000490 68 bc 0a ff c1 e2 34 c0 db 89 c5 0e 26 6f 46 c0
       -20.88577264797314 -44.868348928884835
0004a0 ec af 7e 60 12 87 54 c0 66 02 17 39 63 11 40 c0
       -82.11049663898274 -32.13584054587845
0004b0 4e 7e fb 81 dd 21 51 40 87 37 e9 39 a7 f6 54 c0
       68.52914475974941 -83.85395667815293
0004c0 dd 6b a9 ee 67 33 53 40 fc c1 af e9 9b 68 19 c0
       76.8032185225015 -6.352157260277178
0004d0 b7 4e b9 17 07 a3 4c c0 45 86 74 ab 3c 9e 31 40
       -57.273653951151054 17.61811324686848
0004e0 95 7b 83 8d c4 a7 25 40 a6 45 39 53 8f c3 48 40
       10.827671453762187 49.52781143471229
0004f0 75 4d d2 cf 33 22 3f c0 b0 d4 cc 6e 69 fe 45 c0
       -31.133603085368538 -43.987592554106755
000500 a3 33 6f f2 ff 54 27 40 b9 58 b4 4a a5 03 3f 40
       11.666015220713069 31.014240902929235
000510 f9 e4 99 fc d7 c2 50 40 9d 69 b4 7b 45 07 34 c0
       67.04443278340104 -20.02840397982219
000520 c9 ed 2a 8d ef 2a 45 c0 4b 08 67 a9 11 9e 3e 40
       -42.335435529672004 30.61745699658813
000530 28 1c 65 7f 9e 3d 11 c0 3d 42 bf 6a 75 86 53 c0
       -4.310174933000816 -78.10091656377422
000540 08 ae 1d 8a 64 16 34 c0 bb f4 c9 51 54 46 3d 40
       -20.087471611257598 29.274724113279017
000550 24 b3 57 69 5e f2 45 c0 b1 4f 70 5a f8 83 48 40
       -43.89350621015754 49.03101664051008
000560 93 6b 75 0e 89 de 42 40 d4 2b 51 a1 79 db 51 c0
       37.738557631811226 -71.42929871489406
000570 b4 3c 3c 81 d4 06 22 40 80 16 cd 0e 7a c0 44 c0
       9.013340033152737 -41.503724908962795
000580 f0 ee 1c 5c f2 22 2a c0 30 61 aa 60 84 2a 47 c0
       -13.068255308658507 -46.3321648437435
000590 13 d2 06 32 24 07 ff bf 2f 51 65 a3 92 48 4a c0
       -1.9392435030141584 -52.56697504469991
0005a0 a0 2b 8b 24 60 ed 42 40 4f 16 5d 19 7b 8a 4d c0
       37.854496543840696 -59.08188168568869
0005b0 3e 73 d2 61 26 e5 3a 40 20 34 f1 a2 25 ad 53 c0
       26.895116914634166 -78.70542214922943
0005c0 38 88 63 59 b3 2b 51 40 5c eb 14 db 7c be fc bf
       68.68282160491879 -1.7965057905082267
0005d0 9f db 9c b9 54 76 4f 40 45 f8 07 d7 25 0e 41 40
       62.924460603323716 34.11052978409911
0005e0 0b 34 36 be 4e b6 4d 40 c3 c8 3c 2f f4 d7 27 c0
       59.42427804609914 -11.921784855050992
0005f0 c6 99 6e 92 55 7b 4d 40 dc 5b 8c c4 ad f0 51 40
       58.96354895019935 71.7606059427921
000600 a0 72 18 6d 63 32 4d 40 33 f3 db fd 3a b1 38 40
       58.39365924543131 24.692306390951853
000610 a4 bd 2e 7e a3 61 3c 40 ed 1a 85 a7 a5 d9 56 c0
       28.381400953685116 -91.40073574064782
000620 1d e2 47 49 85 09 55 40 97 f5 7c c9 3b 85 3b c0
       84.14876014728402 -27.52044352818265
000630 77 50 42 32 11 4c 50 c0 29 c8 e4 56 09 8e 43 c0
       -65.18854958034522 -39.10966001673689
000640 8a f2 8b b1 a4 11 50 40 85 0c 2f ed ce 3c 3c 40
       64.27567709604969 28.237532447802113
000650 86 4a eb 13 15 d1 29 c0 8f 37 f4 c5 d5 98 40 40
       -12.908363935920772 33.19402384209308
000660 e6 0b 7f 70 63 f5 33 40 a8 66 94 56 59 f5 36 40
       19.958548575417716 22.958394442778314
000670 d5 83 1f 5e d3 65 42 c0 5e 5c 04 6c 09 6e 57 40
       -36.795512929332894 93.71932506967411
000680 bd 48 d2 5e 29 1a 44 40 aa b4 35 95 c3 e0 45 40
       40.20438752429752 43.75596871492719
000690 45 d2 b4 c6 59 e8 13 c0 fb 28 43 1f e8 88 41 40
       -4.976904969011746 35.069583804886825
0006a0 04 fd 11 31 bb 97 43 40 67 bd 03 63 ff 6a 4d c0
       39.18540013674104 -58.835918785883045
0006b0 eb 15 9f 71 1a 7c 46 c0 0a 07 3f 75 4d d6 46 c0
       -44.96955700176098 -45.67423883035197
0006c0 34 a7 be d0 d6 16 25 40 a2 73 aa ab 2f 9a 37 c0
       10.54460766150769 -23.60228989516657
0006d0 ef 03 80 5f cb 80 38 40 b0 13 10 b4 61 d3 40 c0
       24.50310322642684 -33.651419170236636
0006e0 d2 5d 61 ef 5a 34 24 40 f3 e5 7b a1 e7 9e 26 40
       10.102256279597814 11.310360952734277
0006f0 0f bb 8d 97 cb 3c 44 40 18 c8 cb 68 3f f3 fc bf
       40.474963134960596 -1.8093866437525374
000700 96 03 c2 ef 36 94 37 40 16 45 41 71 46 e0 52 c0
       23.578963265291883 -75.50429946302424
000710 8e 67 be ee e0 1c 48 40 45 1e 03 75 51 09 f1 3f
       48.22561439797492 1.0647749491489702
000720 e9 c2 55 9b 47 ce 49 c0 05 f0 9e c1 3b b2 48 c0
       -51.611560265422504 -49.392448618513335
000730 58 95 70 d9 2f c5 27 c0 70 7f ae 2c 33 5b 29 40
       -11.885130686753357 12.678124805737497
000740 e6 65 33 4d ea 36 39 c0 40 b5 1a 7d f6 eb 49 c0
       -25.21451265816531 -51.84345973781683
000750 ab 68 9a 8f 21 31 4a 40 3e 8f 9e 7c d4 65 20 c0
       52.38383669890876 -8.198886770587361
000760 31 93 a0 8f 82 1b 55 c0 d8 31 d7 52 50 89 50 c0
       -84.4298438137164 -66.14552756323917
000770 29 84 97 94 f0 df 15 c0 f7 c5 6e 23 22 0e 4b 40
       -5.468691179035013 54.11041682156422
000780 01 a7 34 ea 08 b4 31 c0 00 04 31 5b 01 da 2d c0
       -17.70326103005846 -14.925791597112038
000790 0c 13 d2 84 61 63 28 40 88 b5 69 17 97 0f 46 c0
       12.194103384631966 -44.12179844533517
0007a0 94 23 a8 91 63 ae 35 c0 81 1b d1 3f 4f c8 4c 40
       -21.681206801938586 57.564918496230355
0007b0 b9 3c b0 28 70 a3 49 40 97 fb d0 b4 d6 00 43 c0
       51.27686031918842 -38.006552316706056
0007c0 cc 4a e7 34 81 33 51 40 67 c7 97 23 31 f9 50 40
       68.80476114832999 67.89362420866165
0007d0 ca 3c 3d 63 c6 62 56 c0 08 52 83 36 79 69 36 c0
       -89.54335862140866 -22.4120058127028
0007e0 d6 54 6c bf ba 6b 51 c0 f4 d8 84 4c 61 b0 49 40
       -69.68327317790258 51.377969326846056
0007f0 78 f9 da b4 e1 7b 54 c0 92 d3 66 db 7c 5c 3d c0
       -81.93565102943637 -29.361280167202104

all_best_fitness f8 [19, 3000]
000000 58 f6 67 29 6b 48 bb 40 58 f6 67 29 6b 48 bb 40
       6984.418600556986 6984.418600556986
000010 58 3c 83 47 e5 cd b9 40 58 3c 83 47 e5 cd b9 40
       6605.895622446282 6605.895622446282
000020 ba f0 f8 97 04 44 b9 40 ba f0 f8 97 04 44 b9 40
       6468.017943915149 6468.017943915149
000030 ba f0 f8 97 04 44 b9 40 ba f0 f8 97 04 44 b9 40
       6468.017943915149 6468.017943915149
000040 ba f0 f8 97 04 44 b9 40 ba f0 f8 97 04 44 b9 40
       6468.017943915149 6468.017943915149
000050 ba f0 f8 97 04 44 b9 40 c4 bd 50 b4 9e 08 b9 40
       6468.017943915149 6408.619938894586
000060 d6 4d 70 97 24 59 b7 40 d6 4d 70 97 24 59 b7 40
       5977.142935770991 5977.142935770991
000070 d6 4d 70 97 24 59 b7 40 d6 4d 70 97 24 59 b7 40
       5977.142935770991 5977.142935770991
000080 24 3e ce 46 0c a6 b5 40 ec c7 07 0c a9 fc b4 40
       5542.047955408259 5372.660339819249
000090 c8 ab 0f e0 39 99 b4 40 21 cd a0 41 7d 68 b4 40
       5273.226075152816 5224.4892826557925
0000a0 94 da 5e eb a7 b4 b3 40 e6 29 6f dc 38 f6 b2 40
       5044.655935219158 4854.222113559465
0000b0 6a c7 aa 3f ef 6f b2 40 3b f0 83 f7 a7 4e b2 40
       4719.93456523293 4686.65612053504
0000c0 39 4e 7f f4 27 07 b2 40 c0 ac e0 54 7f f0 b1 40
       4615.156074482534 4592.497388879943
0000d0 b1 fc 7a 2b b3 e7 b1 40 1d c6 0d 16 5f aa b1 40
       4583.699882208531 4522.371430264347
0000e0 1a 24 58 b8 d7 9a b1 40 fd 61 d1 98 0d 6c b1 40
       4506.842656620802 4460.053113066123
0000f0 30 92 90 49 50 56 b1 40 d3 81 0f cd b8 3e b1 40
       4438.313622508707 4414.7218789760545
000100 f4 ef 95 6b bc 2c b1 40 27 ed a4 66 eb cf b0 40
       4396.73601662739 4303.919534976862
000110 1c 5a 7e 54 ab ab b0 40 76 c3 63 59 e8 9f b0 40
       4267.669258019447 4255.907613978596
000120 ba 60 33 7f 91 9d b0 40 27 5c 67 5c 2b 92 b0 40
       4253.568347178569 4242.169378719328
000130 ea 92 d4 c8 b9 63 b0 40 7f 9f 7e 56 a2 5f b0 40
       4195.725720678203 4191.63413230318
000140 59 3c 8c 82 6d 51 b0 40 67 7b d7 8d d4 41 b0 40
       4177.427773251279 4161.830289332988
000150 df ac 1a 72 19 36 b0 40 05 0d ea d2 b6 2e b0 40
       4150.099397341924 4142.714155796221
000160 3d 9c b4 72 50 28 b0 40 d8 9b 7b c7 d9 0a b0 40
       4136.314250267166 4106.85070011668
000170 d8 9b 7b c7 d9 0a b0 40 fe 08 16 ce e4 f8 af 40
       4106.85070011668 4092.4468848119714
000180 44 53 06 52 ee d3 af 40 90 29 bb a4 cf c1 af 40
       4073.965469548859 4064.905553673576
000190 94 e7 e4 f1 f2 b0 af 40 92 24 df e9 9f a1 af 40
       4056.474501755971 4048.812331174101
0001a0 1a 32 79 37 c4 96 af 40 74 5b 42 9b 1e 90 af 40
       4043.383235728613 4040.059778283752
0001b0 32 8d dd 36 71 8d af 40 9c 0b b8 b9 63 89 af 40
       4038.7211217150552 4036.694776297967
0001c0 cc 06 65 ca 61 80 af 40 d4 c4 ea e1 62 3e af 40
       4032.190997273521 3999.193129860427
0001d0 cc 0f 92 ad 33 3b af 40 f0 bd a3 82 e8 2d af 40
       3997.600933613232 3990.9541217011792
0001e0 78 40 d0 8c 14 21 af 40 82 aa f0 02 38 1a af 40
       3984.5401368216226 3981.109397431196
0001f0 c8 bd 1a c9 83 0b af 40 2e 0c cc 8e 83 06 af 40
       3973.7573936802546 3971.256948830115
000200 0c f5 29 9d 05 fe ae 40 0c f5 29 9d 05 fe ae 40
       3967.010964690364 3967.010964690364
000210 a0 33 cf 15 32 fb ae 40 fe 50 0b 4a 7d f7 ae 40
       3965.597822642376 3963.7447055374496
000220 98 02 e8 cc 85 f5 ae 40 10 c7 15 82 9a f0 ae 40
       3962.761328935925 3960.3017737203118
000230 6c 37 c6 5d 8a ed ae 40 ac 91 5b eb ab ec ae 40
       3958.770246691003 3958.3357800116846
000240 e2 a5 8d 2b c2 ea ae 40 f6 f6 d1 ef 22 e9 ae 40
       3957.3792385354036 3956.5682359327284
000250 78 2e 8f 88 32 e6 ae 40 e4 94 d3 b1 48 e5 ae 40
       3955.098698114798 3954.641981708455
000260 32 f2 77 92 a4 e2 ae 40 d6 b5 1a b9 c7 e1 ae 40
       3953.321429966273 3952.890084109017
000270 5c 65 42 08 e9 e0 ae 40 9c 51 5e d3 08 e0 ae 40
       3952.4551411389093 3952.017237613165
000280 58 17 70 22 82 df ae 40 dc 85 e5 1b f0 de ae 40
       3951.7541689899917 3951.4689628339675
000290 f0 a0 0f 37 7e de ae 40 30 90 3f 6f 3b de ae 40
       3951.2465138324696 3951.116083132125
0002a0 ec fe 93 f5 d2 dd ae 40 2a e5 f9 f2 7f dd ae 40
       3950.9120298622784 3950.749900635933
0002b0 e8 a5 2d 39 37 dd ae 40 a0 ba 7a d5 f9 dc ae 40
       3950.607858110907 3950.4879568436445
0002c0 fc 1b 47 f5 b3 dc ae 40 40 8d 16 31 a3 db ae 40
       3950.351480695883 3949.818733887427
0002d0 1e ee 06 b9 a7 d9 ae 40 02 cf 46 40 b3 d8 ae 40
       3948.8275835195227 3948.3500997665114
0002e0 9a 4a c8 6e a1 d7 ae 40 ec 85 a6 c9 64 d7 ae 40
       3947.8152983275477 3947.696850971077
0002f0 68 b3 8c ab 18 d6 ae 40 fa 1f a1 ef bd d5 ae 40
       3947.0481838196756 3946.8709688521894
000300 70 e9 3a be b2 d4 ae 40 d0 0b 3f a7 b1 d3 ae 40
       3946.3491075906713 3945.846979112808
000310 dc cb 97 f0 36 d3 ae 40 8a 61 ca 3a 7a d2 ae 40
       3945.6073043285705 3945.238729786307
000320 66 ac 5c a9 10 d2 ae 40 38 c6 c0 28 f7 d1 ae 40
       3945.0325421295593 3944.982732795903
000330 c8 d9 31 37 c0 d1 ae 40 1c 44 1d b0 a2 d1 ae 40
       3944.875421102366 3944.817749895634
000340 80 03 63 0d 77 d1 ae 40 1c b2 99 98 4b d1 ae 40
       3944.7325240079663 3944.6476486234587
000350 b4 3e b9 60 40 d1 ae 40 4c b3 5f 4e 26 d1 ae 40
       3944.6257379426042 3944.574816694867
000360 50 af a4 e7 11 d1 ae 40 18 8d 58 d2 08 d1 ae 40
       3944.5349704231267 3944.5172298118814
000370 88 ab 57 1c ec d0 ae 40 c4 85 7e a7 e0 d0 ae 40
       3944.461153735818 3944.4387778795517
000380 8e 95 6d 04 d1 d0 ae 40 70 9f f3 31 be d0 ae 40
       3944.4082369084417 3944.3714748508573
000390 28 85 c7 3e b6 d0 ae 40 e4 47 99 a9 ae d0 ae 40
       3944.3559477186245 3944.3411376858003
0003a0 d4 e4 e6 9a aa d0 ae 40 f6 03 07 2c a7 d0 ae 40
       3944.333213057931 3944.3265077774367
0003b0 7e fa 71 cc a1 d0 ae 40 68 9e b1 78 9d d0 ae 40
       3944.316012918308 3944.3075614457957
0003c0 68 3a a7 db 98 d0 ae 40 84 2a c2 e2 66 d0 ae 40
       3944.2985508211896 3944.200948779764
0003d0 04 0f f6 96 05 d0 ae 40 00 17 b4 00 ce cf ae 40
       3944.010917367299 3943.9023491170956
0003e0 7e 85 89 ec 9c cf ae 40 2a af 3d d4 6c cf ae 40
       3943.806492135568 3943.712556769974
0003f0 b6 41 88 fb 46 cf ae 40 40 5c ad 3a 1a cf ae 40
       3943.638637788793 3943.551228921424
000400 28 f2 81 68 ec ce ae 40 d8 7f 4a 28 d3 ce ae 40
       3943.4617348297215 3943.412416771036
000410 ce 45 df 39 c9 ce ae 40 e8 9e 8d 82 b1 ce ae 40
       3943.3930196545325 3943.3466991669156
000420 b8 0c 91 b7 a0 ce ae 40 5c 96 6c eb 84 ce ae 40
       3943.3139005020166 3943.25960864387
000430 7c 0b 47 63 45 ce ae 40 22 09 c9 d9 35 cb ae 40
       3943.1355230523604 3941.6051771949433
000440 74 74 71 46 08 ca ae 40 66 4c ed c0 0d c9 ae 40
       3941.0161624388365 3940.5268625407944
000450 be 47 2d 03 f9 c7 ae 40 8c 04 23 bc f5 c6 ae 40
       3939.98635236264 3939.4799509947825
000460 0c 5c 9b 15 fb c5 ae 40 04 41 f1 d5 d6 c4 ae 40
       3938.990399222361 3938.4196010009637
000470 d8 cf 5b 19 ec c3 ae 40 70 5b 34 68 2f c3 ae 40
       3937.961130971071 3937.5925918923967
000480 88 26 99 8b a0 c0 ae 40 62 fb 88 9d 90 b2 ae 40
       3936.313565050081 3929.282451897322
000490 52 64 10 50 c2 af ae 40 d0 31 e5 ce 7b a2 ae 40
       3927.8795170900785 3921.241812860804
0004a0 6a da 90 a4 b3 9d ae 40 7c 3c 59 29 23 9d ae 40
       3918.8508649126643 3918.568674839624
0004b0 70 91 c7 f2 e3 9a ae 40 70 91 c7 f2 e3 9a ae 40
       3917.44521163607 3917.44521163607
0004c0 58 9b a3 20 34 97 ae 40 e4 3c 5d 97 80 96 ae 40
       3915.601811516488 3915.251154817279
0004d0 a0 61 fe 83 aa 94 ae 40 32 44 7b 90 7c 92 ae 40
       3914.3330382818385 3913.243289806437
0004e0 9c 6a c8 1e 03 91 ae 40 80 5e 66 b8 78 90 ae 40
       3912.5060942297114 3912.235781859432
0004f0 c4 f5 2b fc 54 8f ae 40 30 26 a0 e3 71 8e ae 40
       3911.6659864175326 3911.222439770376
000500 48 3f 50 6f 48 8d ae 40 c0 3e 98 77 ee 8c ae 40
       3910.6414742543457 3910.4657561852073
000510 e0 28 f1 d9 9a 8b ae 40 4c 5a ec bb 25 8b ae 40
       3909.8024440157315 3909.5736993656374
000520 e0 39 8d a6 cc 89 ae 40 26 06 cd 5c d5 87 ae 40
       3908.899708188357 3907.9167236394887
000530 26 06 cd 5c d5 87 ae 40 80 66 d8 8e d9 86 ae 40
       3907.9167236394887 3907.4249179482576
000540 14 99 4e f6 72 86 ae 40 50 5d a9 ab dc 85 ae 40
       3907.2245354234565 3906.9309971739203
000550 2e dc 5d a3 7d 85 ae 40 50 c7 2d 25 06 85 ae 40
       3906.745387013557 3906.512002401905
000560 84 3b 5d 8c a9 84 ae 40 c2 28 4a 2c 40 84 ae 40
       3906.331149018779 3906.125337903476
000570 7a 39 f9 9c 1c 84 ae 40 48 2d 4b 5a c3 83 ae 40
       3906.0558851130163 3905.8815482609534
000580 d8 2c 2b ec 9b 83 ae 40 0e d5 b1 9e 6f 83 ae 40
       3905.8045361988297 3905.71800761915
000590 b0 11 4e 13 13 83 ae 40 50 22 98 5c fd 82 ae 40
       3905.5372566601363 3905.4948470632444
0005a0 e8 1f e8 b7 9a 82 ae 40 98 0f 41 6f 74 82 ae 40
       3905.3021843470524 3905.2274113017593
0005b0 b0 f2 f9 66 2e 82 ae 40 74 e9 19 41 fc 81 ae 40
       3905.090629397273 3904.99268418288
0005c0 dc 8a 8f 5d da 81 ae 40 ac 89 1e 7d ff 80 ae 40
       3904.926495061589 3904.499001459413
0005d0 86 d0 2d 6c 15 79 ae 40 a4 91 4f de ea 75 ae 40
       3900.541840964989 3898.958727346924
0005e0 14 67 de 10 25 71 ae 40 00 ad 2c 77 24 70 ae 40
       3896.572394323428 3896.0712217293913
0005f0 22 72 4a ba 8c 6e ae 40 74 46 95 f5 11 6c ae 40
       3895.2748587860415 3894.035076775408
000600 74 46 95 f5 11 6c ae 40 ac a3 e9 1a 2a 6a ae 40
       3894.035076775408 3893.082236577253
000610 50 b3 6d ce a2 68 ae 40 72 3b 77 47 03 67 ae 40
       3892.3179811746013 3891.5064046154084
000620 d8 ed a5 73 00 64 ae 40 a4 34 74 5e 80 62 ae 40
       3890.000882325443 3889.2507206262835
000630 b0 61 31 3f 81 60 ae 40 fc f2 57 99 23 5f ae 40
       3888.2524352485416 3887.5695292934524
000640 10 ff fb b0 0d 5e ae 40 22 fa 2c a9 55 5d ae 40
       3887.0267409085136 3886.6673063330973
000650 92 0d 5e 90 ee 5c ae 40 4c 14 d0 b6 cf 4c ae 40
       3886.4659451858106 3878.4056916260506
000660 ec eb 72 6d 2d 45 ae 40 a2 05 c8 a4 1e 40 ae 40
       3874.5887256539336 3872.0598509318233
000670 dc 88 fe 45 cb 3b ae 40 14 7d 83 82 95 39 ae 40
       3869.897018388945 3868.7920113649543
000680 7e ac e5 8a d7 37 ae 40 ec 39 66 3c 7d 36 ae 40
       3867.920981576258 3867.2446014352518
000690 78 84 d6 d7 ce 35 ae 40 28 39 48 65 5b 35 ae 40
       3866.9039904629426 3866.6785070962687
0006a0 8a 86 1c 47 de 34 ae 40 74 05 5d 13 57 34 ae 40
       3866.434136287139 3866.170069605747
0006b0 58 ba 78 6f fa 33 ae 40 86 90 21 de 75 33 ae 40
       3865.989131710765 3865.7302103508873
0006c0 56 32 7a df 19 33 ae 40 80 da b8 ce af 32 ae 40
       3865.5505331217237 3865.3433740393375
0006d0 98 16 a9 24 68 32 ae 40 80 a3 26 b6 36 32 ae 40
       3865.203404697426 3865.106858451327
0006e0 1c ef b6 aa 0e 32 ae 40 b6 e5 30 0a cf 31 ae 40
       3865.028646198929 3864.9043746261987
0006f0 bc f2 fe f4 b2 31 ae 40 60 ae 17 41 95 31 ae 40
       3864.8495254203135 3864.791512241398
000700 1e b0 b7 bb 81 31 ae 40 e0 56 e4 7b 5d 31 ae 40
       3864.753385296105 3864.6825858455704
000710 7c f8 6e 85 4b 31 ae 40 e8 57 55 68 37 31 ae 40
       3864.6475023916555 3864.6082178754623
000720 1c 7c ad 51 28 31 ae 40 18 bf 61 d8 11 31 ae 40
       3864.578748151207 3864.5348539872903
000730 44 61 25 f1 00 31 ae 40 28 77 a1 53 ec 30 ae 40
       3864.501839798091 3864.4615755517916
000740 70 14 f2 6d df 30 ae 40 5c 50 a3 23 cf 30 ae 40
       3864.436385693545 3864.404568770942
000750 00 9b 19 c0 c2 30 ae 40 34 a8 4d 06 b4 30 ae 40
       3864.3803718568524 3864.3516105907274
000760 50 12 52 98 a6 30 ae 40 b8 72 8c 1f 9e 30 ae 40
       3864.325380863891 3864.3088344469106
000770 68 5e cd 4d 93 30 ae 40 b0 57 d2 9b 8c 30 ae 40
       3864.2877029588453 3864.274626324848
000780 b4 1e 66 ea 82 30 ae 40 1a 4f 1c 4e 7e 30 ae 40
       3864.2556945717315 3864.246689686447
000790 bc d8 06 57 77 30 ae 40 8e c4 b3 75 72 30 ae 40
       3864.2330858363694 3864.223554246658
0007a0 10 a9 b2 75 6b 30 ae 40 b0 50 37 45 92 2f ae 40
       3864.209882338655 3863.7856843267436
0007b0 30 5f ef 8c 85 2e ae 40 08 6d 2f c5 ab 2d ae 40
       3863.2608408740707 3862.8354887791247
0007c0 90 f4 9a 4a 54 2d ae 40 7a 6a 83 b4 02 2d ae 40
       3862.664631693224 3862.5052834575154
0007d0 40 ac 8b 1d b7 2c ae 40 a8 fd 0d 09 5a 2c ae 40
       3862.3576472900168 3862.1758503315104
0007e0 a8 fd 0d 09 5a 2c ae 40 5e 08 08 e8 fe 2b ae 40
       3862.1758503315104 3861.997864008924
0007f0 58 13 9a 7e eb 2b ae 40 10 8b 9b 0a d0 2b ae 40
       3861.9599502705205 3861.9063309294943

all_mean_fitness f8 [19, 3000]
000000 a5 41 26 57 65 6b c2 40 7a ab 98 88 b3 2a c1 40
       9430.791722089818 8789.402606090287
000010 63 76 1b 14 a5 a8 c0 40 a9 a9 44 95 cb 5c c0 40
       8529.289676125341 8377.590492804376
000020 06 4d a8 4f 5c 07 c0 40 74 ad b7 0b 24 b5 bf 40
       8206.7211809517 8117.140803794715
000030 51 18 48 53 67 35 bf 40 ba 0a 75 72 21 e5 be 40
       7989.403614526688 7909.130652728194
000040 6c b4 45 92 1a b6 be 40 e6 3c 5d 1b f3 66 be 40
       7862.103794437931 7782.949636294716
000050 57 5c df 02 31 21 be 40 4a 09 71 b7 ba 0a be 40
       7713.1914500809135 7690.729361595886
000060 26 81 10 79 24 d7 bd 40 6d c1 c1 e3 05 9c bd 40
       7639.142472297221 7580.023006543849
000070 60 70 4d db 39 6a bd 40 65 67 a0 b3 18 3d bd 40
       7530.226002540527 7485.096490884059
000080 21 7c 8a fa 7d 0e bd 40 0c 2a 81 42 e4 59 bc 40
       7438.492104201608 7257.891639778867
000090 4a 95 35 61 1b 0e bc 40 a8 b4 34 87 4c dd bb 40
       7182.106952046344 7133.298938078027
0000a0 57 28 9c 8a 12 80 bb 40 e9 ef 6a 82 2f 10 bb 40
       7040.072427520608 6928.185583766529
0000b0 36 0e 86 d3 fb c9 ba 40 bc ae cb bc 41 76 ba 40
       6857.983696344823 6774.25678704277
0000c0 b3 13 e7 8c 40 3b ba 40 1b 00 8b 62 ff ef b9 40
       6715.252150003728 6639.997597396398
0000d0 4f 29 20 f2 e3 b1 b9 40 32 16 73 cb 10 90 b9 40
       6577.89041329392 6544.065604393882
0000e0 29 73 4e c4 8e 68 b9 40 60 db cd e4 d9 34 b9 40
       6504.557682898631 6452.851147523936
0000f0 ff fb e6 d8 01 11 b9 40 2a 4b 5d 87 36 e8 b8 40
       6417.007215916178 6376.213002997256
000100 c9 98 af a9 d4 cb b8 40 b8 92 e5 15 a8 95 b8 40
       6347.8307142017375 6293.656584118195
000110 cd 5b c8 55 1f 5c b8 40 2a 75 55 3a 32 2e b8 40
       6236.122402689373 6190.19620260344
000120 80 c9 d6 1b 9a fd b7 40 bb 72 24 31 c8 cb b7 40
       6141.601987289614 6091.781999853144
000130 b1 fd d5 66 7c 9b b7 40 77 6d c7 51 d1 66 b7 40
       6043.485944151341 5990.817654098725
000140 96 9f 9e 40 07 11 b7 40 4c 05 37 6b 88 ed b6 40
       5905.02832976719 5869.532885969918
000150 9b bb 92 1f a3 d6 b6 40 63 47 53 cf d4 a8 b6 40
       5846.637200518419 5800.8312885331425
000160 fc 85 cc b3 21 92 b6 40 d4 22 37 59 04 75 b6 40
       5778.131649763785 5749.016986318591
000170 fd 00 24 47 b6 6b b6 40 5f 8c f7 e1 c4 5c b6 40
       5739.712023020021 5724.769072982569
000180 63 77 f0 58 75 42 b6 40 53 2c 39 84 ca 28 b6 40
       5698.458388356349 5672.791080067941
000190 dc e8 95 89 07 02 b6 40 85 de 1e 51 b9 db b5 40
       5634.02944313941 5595.723894051863
0001a0 71 19 37 28 cc a2 b5 40 2c 58 a6 37 7a 54 b5 40
       5538.7974886357415 5460.477411648299
0001b0 01 73 60 b4 e5 0b b5 40 56 ab 41 16 79 de b4 40
       5387.897283580854 5342.4729958575535
0001c0 9a f0 5d 29 71 b7 b4 40 4c 46 d2 12 6d a2 b4 40
       5303.442037459603 5282.426068441546
0001d0 2d f4 6b bd b6 8c b4 40 66 ff 7e 96 aa 72 b4 40
       5260.713827845681 5234.666358888009
0001e0 91 d7 49 ed ef 6a b4 40 34 88 82 5e c6 54 b4 40
       5226.937214484337 5204.774879606488
0001f0 9c 14 79 46 82 4c b4 40 5b e7 2c aa 2c 38 b4 40
       5196.508887832195 5176.174471670612
000200 01 a4 19 0f 4d 32 b4 40 c4 b9 ae 23 54 1d b4 40
       5170.301011660137 5149.328669472077
000210 ed f6 3b d2 45 17 b4 40 f4 92 d7 b9 04 15 b4 40
       5143.272739169869 5141.01846072519
000220 30 fb 79 2a 81 0e b4 40 13 53 ee 67 0d 0c b4 40
       5134.504554389787 5132.052367110521
000230 d1 66 89 b0 74 06 b4 40 1a 40 4c f6 46 00 b4 40
       5126.45581873665 5120.277195706987
000240 58 49 be 13 99 f6 b3 40 3a af c1 f4 99 e7 b3 40
       5110.597957508951 5095.601390939026
000250 45 94 db ab 93 d8 b3 40 e1 c1 cb a4 11 d5 b3 40
       5080.576841090869 5077.06892083629
000260 30 1b 3c 60 11 c8 b3 40 54 b3 a3 2e 5c ba b3 40
       5064.067874676359 5050.360086661607
000270 01 2d f0 4e 6e 9f b3 40 8c 59 e5 46 8e 9b b3 40
       5023.43089200114 5019.555769285547
000280 93 4e 4c 82 ac 98 b3 40 a1 da c3 0d db 95 b3 40
       5016.673863190826 5013.855678788067
000290 9e 78 d1 9e d7 92 b3 40 de 6a 18 9f 6f 92 b3 40
       5010.842267124126 5010.436021352854
0002a0 ba f0 c8 fd e7 91 b3 40 bf 03 13 7d b8 91 b3 40
       5009.90621620061 5009.720658481993
0002b0 f8 ed df 17 7e 8d b3 40 6b fb 01 a7 5c 8d b3 40
       5005.492551799391 5005.361923335916
0002c0 88 60 80 14 fe 8c b3 40 b6 36 5c 2b c0 8c b3 40
       5004.992500327651 5004.750661624295
0002d0 f3 84 9a f2 a3 8a b3 40 79 62 51 7d 2f 8a b3 40
       5002.640420587023 5002.1855059495365
0002e0 13 40 d4 0e f0 7f b3 40 16 50 87 1c eb 78 b3 40
       4991.93772627415 4984.918404061367
0002f0 a8 32 a0 4e 31 73 b3 40 da 69 3c 3a 9a 64 b3 40
       4979.192605984084 4964.60245111069
000300 12 7a f7 52 82 5c b3 40 52 60 94 f0 4a 52 b3 40
       4956.509078471472 4946.292733453289
000310 ed b8 a0 46 64 4b b3 40 40 9c 1d 82 8c 46 b3 40
       4939.391702695034 4934.548860407493
000320 ea 07 b6 4a 37 46 b3 40 22 23 f2 fb 03 46 b3 40
       4934.215983750279 4934.015563138559
000330 a4 75 6e 2e ba 44 b3 40 e4 4f cf 09 6f 44 b3 40
       4932.727270988198 4932.433743435864
000340 8c 5d 87 89 ff 3d b3 40 5e 88 18 50 c6 3d b3 40
       4925.998192272509 4925.774659665387
000350 7d 4a 0a 12 53 38 b3 40 71 07 8d f2 b6 35 b3 40
       4920.324494021593 4917.714638532941
000360 a8 c1 eb f1 b1 35 b3 40 3f ba 36 64 a6 35 b3 40
       4917.695097670345 4917.649966640921
000370 cf 1d 84 ac 9f 35 b3 40 31 d6 fd cb 90 35 b3 40
       4917.623726136472 4917.565612664025
000380 9a 11 66 2d 88 35 b3 40 ec 05 05 e0 82 35 b3 40
       4917.53194272928 4917.511230768152
000390 a8 51 f6 0f 7f 35 b3 40 44 19 cc 21 81 33 b3 40
       4917.496337313591 4915.504421955269
0003a0 61 02 95 99 7f 2d b3 40 c2 59 08 e1 5a 21 b3 40
       4909.4984372263725 4897.354996225275
0003b0 37 cf 4f f2 57 21 b3 40 23 5f 35 32 4c 1c b3 40
       4897.343541133966 4892.29764112065
0003c0 6a 70 55 9c 37 19 b3 40 fd 10 2f a0 5d 0e b3 40
       4889.217229213662 4878.365725461624
0003d0 4d 53 67 86 1b 0d b3 40 14 e9 8b 18 f7 fe b2 40
       4877.107519586408 4862.965218300251
0003e0 2f 07 07 5b 7e fd b2 40 38 7d da b9 92 ef b2 40
       4861.49357646871 4847.573148398944
0003f0 11 a1 14 17 90 ee b2 40 f6 4c 52 ba 47 e1 b2 40
       4846.5628521817425 4833.280186790265
000400 6a 4f 4a fa 21 c6 b2 40 67 eb 05 a0 ae bc b2 40
       4806.132725376499 4796.682129259082
000410 b9 ea 9e 73 38 aa b2 40 7a b5 c0 ab 7d a1 b2 40
       4778.220514232927 4769.490901989275
000420 0d b7 25 57 14 9f b2 40 1d e1 90 61 4e 94 b2 40
       4767.07945476264 4756.306176238021
000430 18 bc 18 ca b4 8f b2 40 1d 76 95 48 86 86 b2 40
       4751.706208749696 4742.524545041405
000440 66 4a 70 a5 a9 79 b2 40 d6 f7 ae 1c 2a 75 b2 40
       4729.662680643238 4725.164500175006
000450 e8 34 24 6c ff 62 b2 40 73 ef 12 fe 8a 62 b2 40
       4706.997743857304 4706.542939361057
000460 f6 b3 2e d4 c6 60 b2 40 5c df 99 0a 2a 5e b2 40
       4704.776675146995 4702.164224259406
000470 bc 5a 67 10 bb 5d b2 40 f1 9c 63 81 5c 5b b2 40
       4701.730719051029 4699.36134932119
000480 c4 e1 a1 20 cf 5a b2 40 9d 40 0a c0 2c 5a b2 40
       4698.809091680163 4698.17480529859
000490 ca 76 86 58 3e 58 b2 40 aa 78 25 11 d4 55 b2 40
       4696.243538288118 4693.82838663288
0004a0 8e 49 fb eb 2e 51 b2 40 28 4e de 6d 6c 4f b2 40
       4689.183288293321 4687.423551458436
0004b0 ef 0a d0 c0 35 45 b2 40 06 7f ee 8e 34 43 b2 40
       4677.209973337812 4675.205305963527
0004c0 d9 b6 1a 64 16 42 b2 40 a9 38 3f 7d 69 37 b2 40
       4674.0874649712 4663.412067366918
0004d0 10 12 16 d6 49 36 b2 40 29 c4 dc af 54 35 b2 40
       4662.288422946367 4661.33080844678
0004e0 96 5f 04 74 30 29 b2 40 01 06 ca f0 30 28 b2 40
       4649.189270280205 4648.191174150911
0004f0 a7 63 50 9d a6 27 b2 40 2c aa 4e 60 1a 27 b2 40
       4647.6508379214565 4647.1030320325335
000500 a0 14 20 36 2d 26 b2 40 0c ce 2c 18 ba 25 b2 40
       4646.17660713676 4645.726931381516
000510 1f 56 24 45 ad 24 b2 40 b3 f8 7a 78 18 22 b2 40
       4644.676836272264 4642.095588384359
000520 7d 1b bf 73 cd 21 b2 40 5e 3f 84 d9 93 20 b2 40
       4641.802547401629 4640.5775377897935
000530 8f a6 c0 33 15 20 b2 40 dc ad a6 77 10 1f b2 40
       4640.082820931114 4639.064325730749
000540 f6 75 e5 63 af 1a b2 40 8a 58 bd 96 54 1a b2 40
       4634.685118047046 4634.330425104252
000550 6a c5 f7 ce 5a 0b b2 40 76 a3 93 8b f3 04 b2 40
       4619.354720578858 4612.951348521621
000560 ae ec 36 ac 87 03 b2 40 d7 95 9a dc 5d 03 b2 40
       4611.529971535476 4611.366647397596
000570 f4 4b 20 f0 fc 00 b2 40 bb 08 9c c9 1d 00 b2 40
       4608.988039034408 4608.116357566959
000580 d8 b7 c9 39 af fc b1 40 fe 7c 4d 36 df f5 b1 40
       4604.684475524315 4597.871922343269
000590 71 f9 73 dd 99 ee b1 40 11 0f f9 c3 f0 e6 b1 40
       4590.601035354995 4582.940490308932
0005a0 c0 41 39 57 77 e2 b1 40 60 e7 8a 4b 5a e2 b1 40
       4578.466174677422 4578.352715188492
0005b0 ac 21 03 b0 07 e0 b1 40 a6 06 c0 4a ed df b1 40
       4576.030029483529 4575.92692184603
0005c0 fd dd 27 e3 a9 de b1 40 a5 36 14 07 15 de b1 40
       4574.663622371384 4574.082139266339
0005d0 45 eb 26 1c 49 dd b1 40 a7 60 bb 53 4b dc b1 40
       4573.285585815848 4572.294246398064
0005e0 22 0b e0 87 08 db b1 40 99 47 cc 11 db d9 b1 40
       4571.033323290556 4569.855740325432
0005f0 9a 4e ac ee 86 d8 b1 40 fb d7 d4 73 8b d7 b1 40
       4568.527079362097 4567.544736197214
000600 12 7c f1 0f 9d d6 b1 40 3d 14 40 93 a9 d4 b1 40
       4566.613524525443 4564.6624031114015
000610 01 7f 1f a9 eb d2 b1 40 b8 0f eb db 88 cc b1 40
       4562.920549362666 4556.534605685556
000620 17 4c bd e8 55 c7 b1 40 28 de 35 61 fd c1 b1 40
       4551.335582572056 4545.98976456331
000630 14 ae 0a e0 d3 af b1 40 70 1f 3f 0c f8 ae b1 40
       4527.827637355327 4526.968936867881
000640 ff da dc 46 4e ae b1 40 54 d8 c1 73 0f ad b1 40
       4526.305768779245 4525.060360064806
000650 b0 04 d8 45 70 ac b1 40 22 a8 0c f3 5f aa b1 40
       4524.43856573214 4522.374802390144
000660 25 04 d1 04 77 a7 b1 40 7f 5a 29 71 2e a3 b1 40
       4519.464917243492 4515.181414208025
000670 59 e7 01 ec 96 9f b1 40 a3 8a cb 8a 64 9d b1 40
       4511.589538687688 4509.392742844912
000680 31 e7 71 b4 23 9c b1 40 b8 ab 2e c0 63 9b b1 40
       4508.139472121185 4507.389651219295
000690 cc 05 d2 e1 97 9a b1 40 ad 0a 21 25 28 9a b1 40
       4506.593289495864 4506.156816544634
0006a0 7e 72 c3 36 c0 99 b1 40 9a 17 04 29 82 99 b1 40
       4505.750835624172 4505.508438354265
0006b0 ff 5a df 79 46 99 b1 40 6a ad 9b 55 02 99 b1 40
       4505.275297126499 4505.009118776166
0006c0 24 65 d8 a6 c8 98 b1 40 6e 68 ba 8c 96 98 b1 40
       4504.783795857136 4504.588084841247
0006d0 7d 31 e7 12 72 98 b1 40 fb 5e 4f fb 4f 98 b1 40
       4504.4456009383985 4504.312428436936
0006e0 7f 22 ef 6a 36 98 b1 40 2f 4e b9 06 26 98 b1 40
       4504.2125691851825 4504.148540097797
0006f0 94 1f 5f 74 13 98 b1 40 7e df 33 36 06 98 b1 40
       4504.075994439325 4504.024264566482
000700 a1 ca df ff f7 97 b1 40 bf 41 ef 5c ee 97 b1 40
       4503.968748080225 4503.931105569412
000710 66 96 84 84 c3 97 b1 40 e6 eb 41 e3 b8 97 b1 40
       4503.763740812987 4503.7222176743435
000720 24 19 38 c7 6d 93 b1 40 70 c5 ff dd a7 8d b1 40
       4499.428821092737 4493.655731187537
000730 fe a8 24 12 dc 7f b1 40 c7 85 13 5f d3 7d b1 40
       4479.859651843317 4477.825669498597
000740 3f 2d e0 8a c6 79 b1 40 28 ec 42 1f f3 74 b1 40
       4473.775556574866 4468.949695761352
000750 5e 6a 3d fc b7 62 b1 40 f1 ce 5d c1 b2 62 b1 40
       4450.718692625493 4450.698263037703
000760 72 c9 ea aa cd 5c b1 40 72 03 af f3 0d 59 b1 40
       4444.80338923853 4441.054499567357
000770 c8 32 2a 78 54 58 b1 40 72 9a 0e 16 d1 57 b1 40
       4440.329958569906 4439.816742813784
000780 c1 dd 33 71 f9 56 b1 40 ba 4c 20 26 9a 52 b1 40
       4438.974383584632 4434.602144259197
000790 f1 94 ee 83 87 52 b1 40 31 cb 5f 0e 1b 49 b1 40
       4434.529356871951 4425.105688082797
0007a0 13 4c 8c d7 7f 43 b1 40 8c ff 80 b1 ab 39 b1 40
       4419.499382752011 4409.670677244558
0007b0 d0 51 98 0f 04 36 b1 40 d4 29 5e 4f c8 35 b1 40
       4406.01586296079 4405.782461056911
0007c0 f6 6b 9a 03 b1 33 b1 40 8d 46 3d 33 e4 32 b1 40
       4403.691461230619 4402.891406850552
0007d0 48 94 95 f2 87 32 b1 40 4f 3b 1f 2e 5d 32 b1 40
       4402.53104529257 4402.36398501585
0007e0 ac b8 4e 21 0d 32 b1 40 b2 eb 2b 90 e9 31 b1 40
       4402.051289482199 4401.912356133502
0007f0 ac 71 ca 4b c0 31 b1 40 9f 3c d2 9a ac 31 b1 40
       4401.751156475784 4401.6742373846055
